…
    model.add(Dense(512, activation=""relu""))
    model.add(Dropout(0.5))
    model.add(Dense(1, activation=""sigmoid""))
    model.summary()
    # compile the model
    model.compile(loss='binary_crossentropy', optimizer= opt, metrics=['accuracy'])
    


Sadly my model has bad performance (acc = 55% more or less and loss = 0.69). Do you have any suggestion to increase my performance? Is there something wrong?  


Here the model.summary()

    Layer (type)                 Output Shape              Param #   
    =================================================================
    conv1d_3 (Conv1D)            (None, 32, 16)            64        
    _________________________________________________________________
    batch_normalization_1 (Batch (None, 32, 16)            64        
    _________________________________________________________________
    max_pooling1d_3 (MaxPooling1 (None, 16, 16)            0         
    _________________________________________________________________
    conv1d_4 (Conv1D)            (None, 14, 32)            1568      
    _________________________________________________________________
    max_pooling1d_4 (MaxPooling1 (None, 7, 32)             0         
    _________________________________________________________________
    flatten_1 (Flatten)          (None, 224)               0         
    _________________________________________________________________
    dense_2 (Dense)              (None, 512)               115200    
    _________________________________________________________________
    dropout_1 (Dropout)          (None, 512)               0         
    _________________________________________________________________
    dense_3 (Dense)              (None, 1)                 513       
    =================================================================",4,1
1403,2019-11-27,2019,11,27,6,e24iph,Classification accuracy based on top 3 most likely classifications,https://www.reddit.com/r/MachineLearning/comments/e24iph/classification_accuracy_based_on_top_3_most/,JakeBSc,1574802366,[removed],0,1
1404,2019-11-27,2019,11,27,6,e24p4n,Are chatbots viable source of passive income?,https://www.reddit.com/r/MachineLearning/comments/e24p4n/are_chatbots_viable_source_of_passive_income/,DreamOfDestiny,1574803043,[removed],0,1
…
