…
I created (X,Y) data where X is is of shape (1814,204,204,3) and Y is of shape (1814,39) '' 39 corresponds to the dummy variable : category 1 has 2 attributes, category 2 has 26 attribute , category 3 has 11 attributes: so total makes 39 ''.
2. Building my neural neural network
the different parameters of my model are :

epochs = 100
lrate = 0.001
decay = lrate/epochs
sgd = SGD(lr=lrate, momentum=0.9, decay=decay, nesterov=False)
loss=binary_crossentropy
optimizer=sgd
metrics=accuracy
The structure of my trained network is as follows:

_________________________________________________________________
Layer (type)                 Output Shape              Param #   
=================================================================
conv2d_3 (Conv2D)            (None, 204, 204, 32)      896       
_________________________________________________________________
dropout_3 (Dropout)          (None, 204, 204, 32)      0         
_________________________________________________________________
conv2d_4 (Conv2D)            (None, 204, 204, 32)      9248      
_________________________________________________________________
max_pooling2d_2 (MaxPooling2 (None, 102, 102, 32)      0         
_________________________________________________________________
flatten_2 (Flatten)          (None, 332928)            0         
_________________________________________________________________
dense_3 (Dense)              (None, 512)               170459648 
_________________________________________________________________
dropout_4 (Dropout)          (None, 512)               0         
_________________________________________________________________
dense_4 (Dense)              (None, 39)                20007     
_________________________________________________________________
activation_1 (Activation)    (None, 39)                0         

=================================================================
Total params: 170,489,799
Trainable params: 170,489,799
Non-trainable params: 0
Questions

I don't think my metric ='accuracy' is a good choice: it doesn't reflect the reality of what happens. For example, I executed an evaluation test on my training data and got 0.95 ( 95% of all bins are well classified), but that doesn
…
