…
atmul operation inside my custom operation?

Thanks...

",0,1
20,2017-7-10,2017,7,10,22,6mehya,Networks are like onions: Practical Deep Learning with TensorFlow,https://www.reddit.com/r/tensorflow/comments/6mehya/networks_are_like_onions_practical_deep_learning/,gretayld,1499693976,,0,1
21,2017-7-11,2017,7,11,13,6mjtxw,Convolutional Neural Net Classifier: how to ignore labels from loss function?,https://www.reddit.com/r/tensorflow/comments/6mjtxw/convolutional_neural_net_classifier_how_to_ignore/,ThiagoOR,1499745906,"I want to classify images in ""Buy"", ""Sell"" or ""Do nothing"", like this:
[1,0] -&gt; Buy
[0,1] -&gt; Sell
[0,0] -&gt; Do nothing

My train data contains just [1,0] and [0,1] labels. So, my CNN needs to learn something like this:

If my train label is [0,1], and the CNN predict [0,1] -&gt; excellent!
If my train label is [0,1], and the CNN predict [1,0] -&gt; bad!
If my train label is [0,1], and the CNN predict [0,0] -&gt; good! (or don't contabilize in the loss function)

How can I do this in tensorflow?

Thanks for your attention.",0,1
22,2017-7-11,2017,7,11,13,6mk2ys,How to use TensorFlow transfer learning to create an image classifications engine,https://www.reddit.com/r/tensorflow/comments/6mk2ys/how_to_use_tensorflow_transfer_learning_to_create/,davidhung,1499749106,,0,5
23,2017-7-11,2017,7,11,17,6mkulm,N
…
2019-10-25 23:27:28.605900: I tensorflow/stream_executor/cuda/cuda_gpu_executor.cc:1006] successful NUMA node read from SysFS had negative value (-1), but there must be at least one NUMA node, so returning NUMA node zero
2019-10-25 23:27:28.606374: I tensorflow/core/common_runtime/gpu/gpu_device.cc:1304] Created TensorFlow device (/job:localhost/replica:0/task:0/device:GPU:0 with 5411 MB memory) -&gt; physical GPU (device: 0, name: GeForce GTX 1060, pci bus id: 0000:01:00.0, compute capability: 6.1)
Model: ""sequential""
_________________________________________________________________
Layer (type)                 Output Shape              Param #   
=================================================================
conv2d (Conv2D)              (None, 150, 150, 16)      448       
_________________________________________________________________
max_pooling2d (MaxPooling2D) (None, 75, 75, 16)        0         
_________________________________________________________________
conv2d_1 (Conv2D)            (None, 75, 75, 32)        4640      
_________________________________________________________________
max_pooling2d_1 (MaxPooling2 (None, 37, 37, 32)        0         
_________________________________________________________________
conv2d_2 (Conv2D)            (None, 37, 37, 64)        18496     
_________________________________________________________________
max_pooling2d_2 (MaxPooling2 (None, 18, 18, 64)        0         
_________________________________________________________________
flatten (Flatten)            (None, 20736)             0         
_________________________________________________________________
dense (Dense)                (None, 512)               10617344  
_________________________________________________________________
dense_1 (Dense)              (None, 1)                 513       
=================================================================
Total params: 10,641,441
Trainable params: 10,641,441
Non-trainable params: 0
_________________________________________________________________
Epoch 1/15
2019-10-25 23:27:29.514766: I tensorflow/stream_executor/platform/default/dso_loader.cc:44] Successfully opened dynamic library libcudnn.so.7
2019-10-25 23:27:30.606605: I tensorflow/stream_executor/platform/default/dso_loader.cc:44] Successfully opened dynamic library libcublas.so.10.0
…
