…
I have been stuck on trying to solve this for days. There are 3 classifications:
* Spiral (1600 images)
* Elliptical (1600 images)
* Irregular (332 images)

These are galaxy classifications and as you can see, I don't have many irregular galaxy images. When training the neural network, the accuracy does not go over 0.45 and I am wondering if it has something to do with the small amount of images for the irregular galaxies. 

Here is the neural network structure:

_________________________________________________________________
Layer (type)                 Output Shape              Param #   
==================================================
input_1 (InputLayer)         (None, 224, 224, 3)       0         
_________________________________________________________________
block1_conv1 (Conv2D)        (None, 224, 224, 64)      1792      
_________________________________________________________________
block1_conv2 (Conv2D)        (None, 224, 224, 64)      36928     
_________________________________________________________________
block1_pool (MaxPooling2D)   (None, 112, 112, 64)      0         
_________________________________________________________________
block2_conv1 (Conv2D)        (None, 112, 112, 128)     73856     
_________________________________________________________________
block2_conv2 (Conv2D)        (None, 112, 112, 128)     147584    
_________________________________________________________________
block2_pool (MaxPooling2D)   (None, 56, 56, 128)       0         
_________________________________________________________________
block3_conv1 (Conv2D)        (None, 56, 56, 256)       295168    
_________________________________________________________________
block3_conv2 (Conv2D)        (None, 56, 56, 256)       590080    
_________________________________________________________________
block3_conv3 (Conv2D)        (None, 56, 56, 256)       590080    
_________________________________________________________________
block3_pool (MaxPooling2D)   (None, 28, 28, 256)       0         
_________________________________________________________________
block4_conv1 (Conv2D)        (None, 28, 28, 512)       1180160   
_________________________________________________________________
block4_conv2 (Conv2D)        (None, 28, 28, 512)       2359808   
_________________________________________________________________
block4_conv3 (Conv2D)        (None, 28, 28, 512)       2359808   
_________________________________________________________________
block4_pool (MaxPooling2D)   (None, 14, 14, 512)       0         
_________________________________________________________________
block5_conv1 (Conv2D)        (None, 14, 14, 512)       2359808   
_________________________________________________________________
block5_conv2 (Conv2D)        (None, 14, 14, 512)       2359808   
_________________________________________________________________
block5_conv3 (Conv2D)        (None, 14, 14, 512)       2359808   
_________________________________________________________________
block5_pool (MaxPooling2D)   (None, 7, 7, 512)         0         
_________________________________________________________________
flatten (Flatten)            (None, 25088)             0         
_________________________________________________________________
fc1 (Dense)                  (None, 4096)              102764544 
_________________________________________________________________
dropout_1 (Dropout)          (None, 4096)              0         
_________________________________________________________________
fc2 (Dense)                  (None, 4096)              16781312  
_________________________________________________________________
dropout_2 (Dropout)          (None, 4096)              0         
_________________________________________________________________
output (Dense)               (None, 3)                 12291     
==================================================
Total params: 134,272,835
Trainable params: 134,272,835
Non-trainable params: 0
_________________________________________________________________

Are there any suggestions that someone could give me to help me get better accuracy results?

Thank you",0,1,False,self,,,,,
488,MachineLearning,t5_2r3gv,2019-2-9,2019,2,9,3,aojr1p,self.MachineLearning,I want to label images of Coffee Cups for an Object Detection model I am training. Best tools/platform?,https://www.reddit.com/r/MachineLearning/comments/aojr1p/i_want_to_label_images_of_coffee_cups_for_an/,heybluez,1549652139,[removed],0,1,False,self,,,,,
…
