…
2019-10-25 23:27:28.605900: I tensorflow/stream_executor/cuda/cuda_gpu_executor.cc:1006] successful NUMA node read from SysFS had negative value (-1), but there must be at least one NUMA node, so returning NUMA node zero
2019-10-25 23:27:28.606374: I tensorflow/core/common_runtime/gpu/gpu_device.cc:1304] Created TensorFlow device (/job:localhost/replica:0/task:0/device:GPU:0 with 5411 MB memory) -&gt; physical GPU (device: 0, name: GeForce GTX 1060, pci bus id: 0000:01:00.0, compute capability: 6.1)
Model: ""sequential""
_________________________________________________________________
Layer (type)                 Output Shape              Param #   
=================================================================
conv2d (Conv2D)              (None, 150, 150, 16)      448       
_________________________________________________________________
max_pooling2d (MaxPooling2D) (None, 75, 75, 16)        0         
_________________________________________________________________
conv2d_1 (Conv2D)            (None, 75, 75, 32)        4640      
_________________________________________________________________
max_pooling2d_1 (MaxPooling2 (None, 37, 37, 32)        0         
_________________________________________________________________
conv2d_2 (Conv2D)            (None, 37, 37, 64)        18496     
_________________________________________________________________
max_pooling2d_2 (MaxPooling2 (None, 18, 18, 64)        0         
_________________________________________________________________
flatten (Flatten)            (None, 20736)             0         
_________________________________________________________________
dense (Dense)                (None, 512)               10617344  
_________________________________________________________________
dense_1 (Dense)              (None, 1)                 513       
=================================================================
Total params: 10,641,441
Trainable params: 10,641,441
Non-trainable params: 0
_________________________________________________________________
Epoch 1/15
2019-10-25 23:27:29.514766: I tensorflow/stream_executor/platform/default/dso_loader.cc:44] Successfully opened dynamic library libcudnn.so.7
2019-10-25 23:27:30.606605: I tensorflow/stream_executor/platform/default/dso_loader.cc:44] Successfully opened dynamic library libcublas.so.10.0
…
